…
##########Load dataset from data/preprocessed/fb15k237.pkl############
config.json: 100% 608/608 [00:00<00:00, 4.53MB/s]
You are using a model of type llama to instantiate a model of type mkgl_config. This is not supported for all configurations of models and can yield errors.
model.safetensors: 100% 2.20G/2.20G [00:06<00:00, 366MB/s]
generation_config.json: 100% 124/124 [00:00<00:00, 1.18MB/s]
trainable params: 4,868,961 || all params: 1,104,917,345 || trainable%: 0.44066291673609304
None
PeftModel(
  (base_model): LoraModel(
    (model): MKGL(
      (model): LlamaModel(
        (embed_tokens): Embedding(32000, 2048)
        (layers): ModuleList(
          (0-21): 22 x LlamaDecoderLayer(
            (self_attn): LlamaSdpaAttention(
              (q_proj): lora.Linear(
                (base_layer): Linear(in_features=2048, out_features=2048, bias=False)
                (lora_dropout): ModuleDict(
                  (default): Dropout(p=0.05, inplace=False)
                )
                (lora_A): ModuleDict(
                  (default): Linear(in_features=2048, out_features=32, bias=False)
                )
                (lora_B): ModuleDict(
                  (default): Linear(in_features=32, out_features=2048, bias=False)
                )
                (lora_embedding_A): ParameterDict()
                (lora_embedding_B): ParameterDict()
              )
              (k_proj): Linear(in_features=2048, out_features=256, bias=False)
              (v_proj): lora.Linear(
                (base_layer): Linear(in_features=2048, out_features=256, bias=False)
                (lora_dropout): ModuleDict(
                  (default): Dropout(p=0.05, inplace=False)
                )
                (lora_A): ModuleDict(
                  (default): Linear(in_features=2048, out_features=32, bias=False)
                )
                (lora_B): ModuleDict(
                  (default): Linear(in_features=32, out_features=256, bias=False)
                )
                (lora_embedding_A): ParameterDict()
                (lora_embedding_B): ParameterDict()
              )
              (o_proj): Linear(in_features=2048, out_features=2048, bias=False)
              (rotary_emb): LlamaRotaryEmbedding()
            )
            (mlp): LlamaMLP(
              (gate_proj): Linear(in_features=2048, out_features=5632, bias=False)
              (up_proj): Linear(in_features=2048, out_features=5632, bias=False)
              (down_proj): Linear(in_features=5632, out_features=2048, bias=False)
              (act_fn): SiLU()
            )
            (input_layernorm): LlamaRMSNorm()
            (post_attention_layernorm): LlamaRMSNorm()
          )
        )
        (norm): LlamaRMSNorm()
      )
      (lm_head): Linear(in_features=2048, out_features=32000, bias=False)
      (context_retriever): ContextRetriever(
        (down_scaling): Linear(in_features=2048, out_features=32, bias=False)
        (re_scaling): Linear(in_features=384, out_features=32, bias=True)
        (up_scaling): Linear(in_features=32, out_features=2048, bias=False)
      )
      (score_retriever): ScoreRetriever(
        (down_scaling): Linear(in_features=2048, out_features=32, bias=False)
        (re_scaling): Linear(in_features=384, out_features=32, bias=True)
        (kg_retriever): ConditionedPNA(
          (layers): ModuleList(
            (0-5): 6 x PNALayer(
              (message_transform): Linear(in_features=32, out_features=32, bias=True)
              (norm): LayerNorm((32,), eps=1e-05, elementwise_affine=True)
            )
          )
          (mlp): MLP(
            (layers): ModuleList(
              (0): Linear(in_features=32, out_features=64, bias=True)
              (1): Linear(in_features=64, out_features=1, bias=True)
            )
          )
          (rel_embedding): Embedding(2, 32)
          (linear): Linear(in_features=64, out_features=32, bias=True)
        )
        (h_down_scaling): Linear(in_features=2048, out_features=32, bias=False)
        (r_down_scaling): Linear(in_features=2048, out_features=32, bias=False)
      )
    )
  )
)
TrainingArguments(
_n_gpu=1,
accelerator_config={'split_batches': False, 'dispatch_batches': None, 'even_batches': True, 'use_seedable_sampler': True, 'non_blocking': False, 'gradient_accumulation_kwargs': None},
adafactor=False,
adam_beta1=0.9,
adam_beta2=0.999,
adam_epsilon=1e-08,
auto_find_batch_size=False,
batch_eval_metrics=False,
…
